{
  "0": "CombinedEmbedding(  (embedding): Embeddings(    (lut): Embedding(50274, 512)  )  (pe): PositionalEncoding(    (dropout): Dropout(p=0.1, inplace=False)  ))",
  "1": "TransformerEncoderLayerWithMask(  (encoder_layer): TransformerEncoderLayer(    (self_attn): MultiheadAttention(      (out_proj): _LinearWithBias(in_features=512, out_features=512, bias=True)    )    (linear1): Linear(in_features=512, out_features=2048, bias=True)    (dropout): Dropout(p=0.1, inplace=False)    (linear2): Linear(in_features=2048, out_features=512, bias=True)    (norm1): LayerNorm((512,), eps=1e-05, elementwise_affine=True)    (norm2): LayerNorm((512,), eps=1e-05, elementwise_affine=True)    (dropout1): Dropout(p=0.1, inplace=False)    (dropout2): Dropout(p=0.1, inplace=False)  )  (layer_norm): LayerNorm((512,), eps=1e-05, elementwise_affine=True))",
  "2": "TransformerEncoderLayerWithMask(  (encoder_layer): TransformerEncoderLayer(    (self_attn): MultiheadAttention(      (out_proj): _LinearWithBias(in_features=512, out_features=512, bias=True)    )    (linear1): Linear(in_features=512, out_features=2048, bias=True)    (dropout): Dropout(p=0.1, inplace=False)    (linear2): Linear(in_features=2048, out_features=512, bias=True)    (norm1): LayerNorm((512,), eps=1e-05, elementwise_affine=True)    (norm2): LayerNorm((512,), eps=1e-05, elementwise_affine=True)    (dropout1): Dropout(p=0.1, inplace=False)    (dropout2): Dropout(p=0.1, inplace=False)  )  (layer_norm): LayerNorm((512,), eps=1e-05, elementwise_affine=True))",
  "3": "TransformerEncoderLayerWithMask(  (encoder_layer): TransformerEncoderLayer(    (self_attn): MultiheadAttention(      (out_proj): _LinearWithBias(in_features=512, out_features=512, bias=True)    )    (linear1): Linear(in_features=512, out_features=2048, bias=True)    (dropout): Dropout(p=0.1, inplace=False)    (linear2): Linear(in_features=2048, out_features=512, bias=True)    (norm1): LayerNorm((512,), eps=1e-05, elementwise_affine=True)    (norm2): LayerNorm((512,), eps=1e-05, elementwise_affine=True)    (dropout1): Dropout(p=0.1, inplace=False)    (dropout2): Dropout(p=0.1, inplace=False)  )  (layer_norm): LayerNorm((512,), eps=1e-05, elementwise_affine=True))",
  "4": "TransformerEncoderLayerWithMask(  (encoder_layer): TransformerEncoderLayer(    (self_attn): MultiheadAttention(      (out_proj): _LinearWithBias(in_features=512, out_features=512, bias=True)    )    (linear1): Linear(in_features=512, out_features=2048, bias=True)    (dropout): Dropout(p=0.1, inplace=False)    (linear2): Linear(in_features=2048, out_features=512, bias=True)    (norm1): LayerNorm((512,), eps=1e-05, elementwise_affine=True)    (norm2): LayerNorm((512,), eps=1e-05, elementwise_affine=True)    (dropout1): Dropout(p=0.1, inplace=False)    (dropout2): Dropout(p=0.1, inplace=False)  )  (layer_norm): LayerNorm((512,), eps=1e-05, elementwise_affine=True))",
  "5": "TransformerEncoderLayerWithMask(  (encoder_layer): TransformerEncoderLayer(    (self_attn): MultiheadAttention(      (out_proj): _LinearWithBias(in_features=512, out_features=512, bias=True)    )    (linear1): Linear(in_features=512, out_features=2048, bias=True)    (dropout): Dropout(p=0.1, inplace=False)    (linear2): Linear(in_features=2048, out_features=512, bias=True)    (norm1): LayerNorm((512,), eps=1e-05, elementwise_affine=True)    (norm2): LayerNorm((512,), eps=1e-05, elementwise_affine=True)    (dropout1): Dropout(p=0.1, inplace=False)    (dropout2): Dropout(p=0.1, inplace=False)  )  (layer_norm): LayerNorm((512,), eps=1e-05, elementwise_affine=True))",
  "6": "TransformerEncoderLayerWithMask(  (encoder_layer): TransformerEncoderLayer(    (self_attn): MultiheadAttention(      (out_proj): _LinearWithBias(in_features=512, out_features=512, bias=True)    )    (linear1): Linear(in_features=512, out_features=2048, bias=True)    (dropout): Dropout(p=0.1, inplace=False)    (linear2): Linear(in_features=2048, out_features=512, bias=True)    (norm1): LayerNorm((512,), eps=1e-05, elementwise_affine=True)    (norm2): LayerNorm((512,), eps=1e-05, elementwise_affine=True)    (dropout1): Dropout(p=0.1, inplace=False)    (dropout2): Dropout(p=0.1, inplace=False)  )  (layer_norm): LayerNorm((512,), eps=1e-05, elementwise_affine=True))",
  "7": "FinalFCLayer(  (fc): Linear(in_features=512, out_features=50274, bias=True))"
}